ml_model/converted_model.tflite (tflite, 2348 bytes, 5 tensors)

sequential_1/dense_3/BiasAdd/ReadVariableOp/resource f4 [12]
000000 66 cb 08 be c1 81 7b 3e 23 b4 11 3e 98 a1 8f be
       -0.1335884 0.24561216 0.14228873 -0.28052974
000010 00 00 00 00 0a b2 a0 bb bd 15 14 3f 7c 27 d6 3c
       0.0 -0.0049040364 0.5784567 0.026141874
000020 6e ea 37 3f 69 3f 95 3e cd 1f 30 3f 60 d5 c0 bd
       0.71842086 0.2914994 0.68798524 -0.09415698

sequential_1/dense_4/BiasAdd/ReadVariableOp/resource f4 [8]
000000 c4 bf 83 bd 00 00 00 00 dc 21 6e bd b3 af 70 bd
       -0.06433061 0.0 -0.05813776 -0.05876131
000010 cc a7 88 bd 2d c5 2d 3f 00 00 00 00 3b f3 0c be
       -0.0667263 0.6787899 0.0 -0.1376466

sequential_1/dense_3/MatMul f4 [12, 5]
000000 02 c7 cd 3e 0a 82 9c be 8f 1c 6e 3d 5f 8a 29 bc
       0.40190893 -0.30567962 0.058132704 -0.010347932
000010 3d 0b c4 3d 10 b0 52 bf 14 d0 6c be b6 b8 2b bd
       0.09572456 -0.822999 -0.2312625 -0.0419242
000020 b7 c6 02 3f 1b 28 8b bd a4 1e a3 3e f4 e3 5b be
       0.51084465 -0.06794759 0.31859314 -0.21473676
000030 4b 64 07 3f bf cf 5f be 67 b2 d3 3e 09 13 da be
       0.5288741 -0.21856593 0.41347048 -0.42592648
000040 2f ed 11 be fd fc 99 3e 89 8e 86 be 69 51 36 3e
       -0.14250635 0.30075827 -0.2628062 0.17804493
000050 02 84 b0 be e0 92 8c bc fa 91 c3 be 03 0f c5 be
       -0.34475714 -0.01715988 -0.3819731 -0.38488016
000060 ba 72 ca be 16 2f e6 bd b3 36 81 be 31 ad 69 be
       -0.39540654 -0.1123945 -0.25237045 -0.22819974
000070 61 2b 12 bf 07 0f 7d 3e 40 bd e2 bd 09 9c 0e 3f
       -0.5709744 0.24712764 -0.11071253 0.5570684
000080 69 da 9f 3d 76 a9 e6 3e cc b0 42 3e dd f4 53 bd
       0.0780533 0.45051163 0.19012755 -0.05174719
000090 c6 47 2d bf a2 bc 38 bd e2 ed f4 3e cc b4 37 bc
       -0.6768764 -0.04510177 0.4783774 -0.011212539
0000a0 39 41 ac bc eb a0 8a 3e 23 43 1d 3f ce 9c 9b 3e
       -0.021027194 0.27075896 0.6143057 0.3039307
0000b0 30 70 e5 bd b9 11 ad 3e ea fd 15 3f 11 4a ac 3d
       -0.11203039 0.33802584 0.5859057 0.084125645
0000c0 25 ec f2 bd a6 22 06 3f ea 3d b4 3e ca b1 c9 be
       -0.11861447 0.5239662 0.35203487 -0.39393455
0000d0 56 88 b5 3c 00 6d c7 3e f9 24 2b 3e 4c ba 51 be
       0.022159737 0.38950348 0.16713323 -0.20481223
0000e0 b6 40 43 3e df 64 06 bf 83 14 19 bf f4 53 5a be
       0.19067654 -0.5249767 -0.59796923 -0.21321088

sequential_1/dense_4/MatMul f4 [8, 12]
000000 86 5b 74 3e 54 e4 fc 3e de 5b ec 3d 73 29 3f be
       0.23863038 0.4939295 0.1154096 -0.18668155
000010 6c e4 b6 be 92 47 9d 3e db f9 5b be 9a e1 06 bc
       -0.35721147 0.30718666 -0.21482031 -0.008232499
000020 19 c4 42 3e ec 62 df be 54 4a 58 be 66 ba 03 bf
       0.19020118 -0.4363016 -0.21122104 -0.51456296
000030 b8 00 02 be a0 5c 96 bc 8a 28 e8 be 7c 2e 87 3e
       -0.12695587 -0.018354714 -0.4534343 0.26402652
000040 e6 3f c3 be 54 7f ac be 71 20 e8 be cf e8 f0 be
       -0.38134688 -0.33690894 -0.4533725 -0.4705262
000050 76 13 75 be 6e 89 b8 be 40 dc 27 bd 06 e4 bd be
       -0.23933205 -0.3604235 -0.04098153 -0.3708803
000060 31 51 d9 be 1b 5d 93 be ec 44 81 3e bd 7a f4 be
       -0.42444757 -0.2878197 0.25247896 -0.47749892
000070 e2 72 20 be 64 fc 02 bf 0e d7 00 bf 0d ec ef 3e
       -0.15668824 -0.5116637 -0.5032815 0.4685978
000080 d6 0a 81 be da a2 b4 3d 9a bd 08 bf 87 87 98 3e
       -0.2520358 0.08820124 -0.5341431 0.297909
000090 f6 3d be 3e 59 fd ac 3e 63 20 9a be e4 a0 54 bd
       0.37156647 0.3378704 -0.30102834 -0.05191125
0000a0 db 77 be be 2f 4e 0b bf 82 8e 84 be a4 f4 66 3e
       -0.37200817 -0.54416174 -0.25889975 0.2255426
0000b0 ef 6f aa be 66 10 f2 be f3 d8 10 bf 24 92 66 3e
       -0.33288524 -0.47278136 -0.5658104 0.22516686
0000c0 f6 21 c5 be bd 75 f7 3e 0d 32 11 3f 33 9f 1b 3f
       -0.38502473 0.48332015 0.56716996 0.60789794
0000d0 6b d0 83 be fc 96 87 3e ad 53 4e be 54 da 57 bf
       -0.25744948 0.2648238 -0.20149107 -0.8431752
0000e0 19 ce b6 3d 1c bb f5 be 09 09 b3 3e 88 56 d1 be
       0.08926029 -0.47994316 0.3496783 -0.4088633
0000f0 b3 a6 dc 3c 90 c1 b1 3f 7d f0 86 3e 7f dc 00 bf
       0.026934957 1.3887196 0.26355353 -0.5033645
000100 68 6e fe 3d 33 1a f6 be 61 1b 1e 3f 48 2b 9a 3e
       0.12423402 -0.48066863 0.61760527 0.30111146
000110 96 25 e9 3e 7e 9a 1a 3e 6d 54 1b 3f cc cb 9a be
       0.45536488 0.15097997 0.606757 -0.3023361
000120 20 a5 80 3d d2 67 03 3f 40 0a de 3d 00 da 90 3e
       0.06281495 0.5133029 0.10841799 0.2829132
000130 86 51 0d be d0 fe 19 be 24 c4 9b be ed 0c e2 be
       -0.1380063 -0.1503861 -0.3042308 -0.44150487
000140 2c ba fa be 11 23 f2 be 00 21 ba 3d 62 72 05 3f
       -0.48970163 -0.4729238 0.090883255 0.5212766
000150 7d c9 c2 3e 44 25 d4 3e fb ec b3 3e a9 c5 f8 3e
       0.38044348 0.4143468 0.3514174 0.48588303
000160 9a 7b 32 be 17 34 fb 3e 6c 6f 1a bf 55 51 fb be
       -0.17429963 0.4906318 -0.60326266 -0.4908549
000170 51 4e 78 be 7b e8 80 3e 5a 52 0a bf f5 fa cc be
       -0.24248625 0.2517737 -0.5403191 -0.40035215

sequential_1/dense_5/MatMul f4 [1, 8]
000000 94 e9 1d bf 60 3c 4b 3d f9 c5 89 be b3 d1 88 be
       -0.61684537 0.049618125 -0.26908854 -0.26722488
000010 47 2b a4 bf ee 1b 02 3f d8 3c 93 3d d2 72 c9 bd
       -1.2825707 0.5082387 0.071893394 -0.09836353
